server/comb_model/comb.tflite (tflite, 2880 bytes, 2 tensors)

model_10/dense_9/BiasAdd/ReadVariableOp f4 [10]
000000 3e 7d d5 3d 6d 8b 8d bd ad f2 1a 3e 53 78 56 bd
       0.10424279 -0.06911359 0.15131636 -0.052360844
000010 dc 64 4e bc 39 80 82 bd ad 68 8f 3c 56 a2 88 bc
       -0.012597289 -0.06372113 0.017505968 -0.01667897
000020 8b 47 27 bd 3f 40 4f bd
       -0.040839713 -0.05059838

model_10/dense_9/MatMul f4 [10, 40]
000000 fd 11 81 3e 7e bd f1 be cd 48 be be 4e 9b 0c bd
       0.25209036 -0.47214884 -0.37164918 -0.034327798
000010 34 f3 e6 3e 3c e1 96 be 90 23 18 bf b2 a2 df be
       0.45107424 -0.29468715 -0.59429264 -0.43678814
000020 85 ba 7c 3e 72 7f 2b bf 48 01 e9 3d 39 b9 58 bf
       0.24680527 -0.6699134 0.113771975 -0.8465763
000030 21 00 2c bf 14 cf d9 be b5 12 d4 be 98 fc 81 3f
       -0.67187697 -0.425408 -0.41420522 1.015521
000040 d1 12 33 3d 49 8f 40 bf 3b be b1 3d 7b 21 6b bf
       0.043719117 -0.75218636 0.08678862 -0.9184796
000050 f4 54 94 bf 4b 2a 06 bf f7 c7 9f 3e 9f 72 8a be
       -1.1588426 -0.52408284 0.3120725 -0.27040574
000060 68 71 3d bf 59 8c 04 3e 29 b1 84 3f 1e 3c 44 bf
       -0.7400117 0.12944163 1.0366565 -0.7665423
000070 1c 4e 4a be 65 8d 63 bf 87 62 05 3e 44 bb 2b bf
       -0.19756359 -0.88887626 0.13025866 -0.6708262
000080 0c 9a a2 be 43 59 ae be 06 a9 83 bf 83 bb 9a 3e
       -0.31758153 -0.34052476 -1.0285957 0.30221185
000090 15 d3 7b 3f 6b 35 19 bf 8d c0 dc be fa 9e 60 be
       0.9836896 -0.59847134 -0.43115655 -0.21935645
0000a0 f8 41 24 bf 54 e3 cf be b5 9a 26 3e 2a 30 53 3e
       -0.6416316 -0.40603125 0.16269954 0.20623842
0000b0 92 fe 46 bf 88 00 5b 3e 22 5c 4b bf ae 20 81 3f
       -0.77732193 0.21386921 -0.7943746 1.0088098
0000c0 c7 4d 1d bd 2b d7 0d bf 30 e2 cd 3c d9 e0 02 3e
       -0.038404252 -0.55406445 0.025132269 0.12781085
0000d0 04 2a 58 bf 42 54 54 bf 94 ad e3 3d 71 a5 c6 be
       -0.8443911 -0.8294107 0.11117092 -0.38798097
0000e0 75 ef 9c 3d 99 1d 0e bf d9 6a 42 3d b7 eb 6a 3f
       0.0766286 -0.5551391 0.04746518 0.9176592
0000f0 80 c9 54 bf 6c a6 ae bc e1 9f 4b bc 77 e3 26 be
       -0.83119965 -0.02131959 -0.012428255 -0.16297708
000100 25 39 62 3f b4 07 a8 3e dc 97 2c bf 83 20 10 3f
       0.88368446 0.32818377 -0.6741922 0.5629961
000110 ee f4 36 bf 78 2e ae be 5d 28 0c 3e cb 0c 74 3f
       -0.71467483 -0.34019828 0.13687272 0.9533202
000120 ea 3a 35 3e 63 e7 22 bf 4f 9d 19 bf 76 fa 21 3e
       0.17698255 -0.6363432 -0.6000566 0.158182
000130 46 f0 1c bf 5a 8f 40 bf 0a 38 c3 be 91 5d fd 3e
       -0.6130413 -0.7521874 -0.38128692 0.49485448
000140 f7 12 77 bf d8 63 53 bf 65 8b 85 3e 08 c0 2f be
       -0.96513313 -0.82574224 0.26082912 -0.17163098
000150 1a 6a ba be c1 2b a4 be 2d e8 2e 3f dd a0 c4 be
       -0.36409074 -0.32064632 0.6832302 -0.3840398
000160 65 4e 99 be 25 a7 cd 3e 27 e2 19 be e0 e0 db be
       -0.29942623 0.40166584 -0.15027677 -0.42945004
000170 3a a0 44 bf 7b e3 e9 bd c7 a0 26 be ab 37 50 3f
       -0.76806986 -0.114203416 -0.16272269 0.8133494
000180 ba db 18 3e 11 2c 2d bf c7 91 72 3e 11 32 d0 3e
       0.14927569 -0.67645365 0.23688422 0.40663198
000190 30 3d 5f bf bc ad 99 be b1 20 3f bd 6a 35 ae be
       -0.8720274 -0.3001536 -0.046662036 -0.34025127
0001a0 33 df f9 be aa e1 a8 bc 77 99 b9 bd d5 52 65 bd
       -0.488031 -0.020615418 -0.09062474 -0.055987198
0001b0 39 03 6e 3f 6d f3 14 bf 37 bb aa 3d 16 d8 6a bf
       0.9297367 -0.5818394 0.0833649 -0.9173597
0001c0 ce a2 86 be 8b 97 87 3f 8b e5 60 bf 70 eb 05 bd
       -0.26296085 1.0593122 -0.87850255 -0.032695234
0001d0 6c 96 45 bf 20 a7 05 3f e2 58 56 bf e4 d0 90 be
       -0.7718265 0.5220814 -0.83729374 -0.2828437
0001e0 0b 9a 89 bf 72 2c 57 bf 51 a0 95 be 75 0c 8d be
       -1.0750135 -0.84052193 -0.29223874 -0.27548566
0001f0 c2 62 5c bf ff e0 23 be 71 5d 3e 3f fa a7 55 bf
       -0.8608819 -0.16003798 0.7436133 -0.83459437
000200 1f e5 ee 3d 54 b5 60 3e 9c 1e 8a 3e 4b d4 45 bf
       0.11664795 0.21944171 0.26976478 -0.7727706
000210 07 0d 6f bf e3 70 d9 3d 4e c9 1e 3e 93 4d 88 be
       -0.93379253 0.106172346 0.15506479 -0.26621684
000220 d3 1e 5e bd 77 f7 a3 bd 32 ae b1 be 84 ae 0f 3f
       -0.054228615 -0.080061845 -0.34703213 0.56125665
000230 c7 0d 90 3f 6b 04 ba be f0 10 63 bd fe 30 b4 bd
       1.1254205 -0.36331496 -0.055436075 -0.08798407
000240 c6 02 8b bf e3 8e e8 3c 71 f7 a2 3e c7 df e8 be
       -1.0860221 0.028388446 0.31829408 -0.4548323
000250 68 c4 fe be 01 40 4c bf 1a 74 81 be 12 b7 fa be
       -0.4975922 -0.7978516 -0.2528389 -0.48967797
000260 47 3a 8a 3c 67 c7 0e bf 85 28 7b 3f 52 44 19 3b
       0.016873492 -0.55773014 0.981087 0.002338667
000270 3e c5 29 3f de 95 88 be c0 70 cb be 16 46 85 be
       0.6631659 -0.2667684 -0.3973446 -0.26030034
000280 e0 74 c4 3e b8 05 9c 3f 08 90 98 3d ca a0 24 be
       0.3837042 1.2189245 0.07449347 -0.16076961
000290 80 79 c0 bc eb 30 5e be 4d f5 72 bf dd 45 3a bf
       -0.023495436 -0.21698348 -0.9490555 -0.7276285
0002a0 a4 07 98 3d b3 6e 70 bf 6d 7c 3b bd f7 ac 3f bf
       0.07423332 -0.93918914 -0.04577296 -0.748733
0002b0 41 7a 75 bf 8c 86 4c bf 82 40 92 3e 4e df 50 3f
       -0.9588967 -0.798928 0.2856484 0.81590736
0002c0 d2 91 f4 3c 0d 03 a3 3d 5e e9 82 bc c5 76 dc 3e
       0.029854689 0.07959566 -0.015980419 0.43059364
0002d0 1a d9 0c bf 4f ed b4 3e 40 fa b2 bd 17 e4 69 be
       -0.5501877 0.35337302 -0.08739138 -0.22840916
0002e0 41 c8 1c bf 12 50 59 be 56 8c 34 bf 6b 51 77 bf
       -0.61243063 -0.2122195 -0.70526636 -0.9660861
0002f0 25 7e 08 bf 7b f5 5c 3f cb 91 46 be 82 0d 5f bf
       -0.5331748 0.86312073 -0.19391553 -0.87129986
000300 9d 59 88 be 69 34 e1 be e3 80 40 bf 01 c6 1a be
       -0.2663087 -0.43985298 -0.75196666 -0.15114595
000310 93 8c 46 bf 53 7c 5f 3f a5 97 3b 3f 01 03 42 be
       -0.7755825 0.8729908 0.73278266 -0.18946458
000320 11 79 13 3f b0 65 d4 3e af e8 45 3e e9 9d da 3d
       0.5760661 0.4148383 0.19327043 0.1067465
000330 0f 43 52 3e b3 5c a4 3d 35 dd 5a bf cb 65 b5 be
       0.20533393 0.080254935 -0.85493785 -0.35429224
000340 bd 4d a7 bd 52 9c f7 be 3a cf ba 3e 72 10 3c 3d
       -0.08169124 -0.4836145 0.36486226 0.04591412
000350 33 2b 8f 3f 2b 8e 54 bf d9 2e 61 be f3 f8 8d bf
       1.1185058 -0.8302943 -0.21990527 -1.1091598
000360 68 32 a8 be 99 af e6 be bf 44 55 bd 52 48 1d bf
       -0.32850957 -0.45055845 -0.052067515 -0.6143848
000370 5f c2 51 3f da 38 07 3c d7 70 73 bd 50 83 96 bc
       0.8193721 0.008253301 -0.059433784 -0.018373162
000380 77 32 f0 be 98 48 35 bd 88 fb 0b 3f b1 52 6d bf
       -0.46913502 -0.044258684 0.5468068 -0.927043
000390 09 bf 1c bf ac 60 02 bf df 28 04 be dd 03 52 3d
       -0.61228997 -0.5092876 -0.12906216 0.051273216
0003a0 8d 72 84 be 3d d9 92 be d9 61 4e 3f a9 f2 71 be
       -0.25868645 -0.28681365 0.80618054 -0.23627724
0003b0 f8 6b 82 3c ee 68 eb be b2 e9 54 bf 70 cb c9 3e
       0.015920624 -0.45978492 -0.8316909 0.39413023
0003c0 b3 95 4a 3f e8 9e 39 be 78 76 90 bd 48 91 b4 3e
       0.7913467 -0.18127024 -0.07053846 0.3526709
0003d0 ee a0 bb be e8 d0 8e 3e c1 e7 36 bf a4 68 f7 bd
       -0.36646217 0.27893758 -0.7144738 -0.120805055
0003e0 d8 b3 9e be ba 47 7e bf b3 d4 75 3e 77 da 86 3f
       -0.30996585 -0.99328196 0.2400692 1.053542
0003f0 97 65 05 bf 05 ce 2f bf 1d 99 ca 3e 22 8c 47 bf
       -0.5210814 -0.68673736 0.3956994 -0.779482
